…
pretrain_checkpoint_path: ./log_s3dis/pretrain_S0
pretrain_gamma: 0.5
pretrain_lr: 0.001
pretrain_step_size: 50
pretrain_weight_decay: 0.0
save_path: ./log_s3dis/GPCPR_fix_5shot_lr_alpha/
step_size: 8000
train_dim: 320
trans_lr: 5e-05
use_align: True
use_attention: True
use_boundary_shallow: False
use_channelwise_dynamic_fusion: False
use_cps: True
use_dd_loss: True
use_high_dgcnn: True
use_linear_proj: False
use_mam: True
use_pcpr: True
use_supervise_prototype: True
use_text: True
use_text_diff: True
use_transformer: True
-------------- End ----------------

GPCPR(
  (encoder): DGCNNAdapter(
    (backbone): DGCNN_semseg(
      (bn1): BatchNorm2d(64, eps=1e-05, momentum=0.1, affine=True, track_running_stats=True)
      (bn2): BatchNorm2d(64, eps=1e-05, momentum=0.1, affine=True, track_running_stats=True)
      (bn3): BatchNorm2d(64, eps=1e-05, momentum=0.1, affine=True, track_running_stats=True)
      (bn4): BatchNorm2d(64, eps=1e-05, momentum=0.1, affine=True, track_running_stats=True)
      (bn5): BatchNorm2d(64, eps=1e-05, momentum=0.1, affine=True, track_running_stats=True)
      (bn6): BatchNorm1d(256, eps=1e-05, momentum=0.1, affine=True, track_running_stats=True)
      (bn7): BatchNorm1d(512, eps=1e-05, momentum=0.1, affine=True, track_running_stats=True)
      (bn8): BatchNorm1d(256, eps=1e-05, momentum=0.1, affine=True, track_running_stats=True)
      (conv1): Sequential(
        (0): Conv2d(18, 64, kernel_size=(1, 1), stride=(1, 1), bias=False)
        (1): BatchNorm2d(64, eps=1e-05, momentum=0.1, affine=True, track_running_stats=True)
        (2): LeakyReLU(negative_slope=0.2)
      )
      (conv2): Sequential(
        (0): Conv2d(64, 64, kernel_size=(1, 1), stride=(1, 1), bias=False)
        (1): BatchNorm2d(64, eps=1e-05, momentum=0.1, affine=True, track_running_stats=True)
        (2): LeakyReLU(negative_slope=0.2)
      )
      (conv3): Sequential(
        (0): Conv2d(128, 64, kernel_size=(1, 1), stride=(1, 1), bias=False)
        (1): BatchNorm2d(64, eps=1e-05, momentum=0.1, affine=True, track_running_stats=True)
        (2): LeakyReLU(negative_slope=0.2)
      )
      (conv4): Sequential(
        (0): Conv2d(64, 64, kernel_size=(1, 1), stride=(1, 1), bias=False)
        (1): BatchNorm2d(64, eps=1e-05, momentum=0.1, affine=True, track_running_stats=True)
        (2): LeakyReLU(negative_slope=0.2)
      )
      (conv5): Sequential(
        (0): Conv2d(128, 64, kernel_size=(1, 1), stride=(1, 1), bias=False)
        (1): BatchNorm2d(64, eps=1e-05, momentum=0.1, affine=True, track_running_stats=True)
        (2): LeakyReLU(negative_slope=0.2)
      )
      (conv6): Sequential(
        (0): Conv1d(192, 256, kernel_size=(1,), stride=(1,), bias=False)
        (1): BatchNorm1d(256, eps=1e-05, momentum=0.1, affine=True, track_running_stats=True)
        (2): LeakyReLU(negative_slope=0.2)
      )
    )
  )
  (base_learner): BaseLearner(
    (convs): ModuleList(
      (0): Sequential(
        (0): Conv1d(256, 128, kernel_size=(1,), stride=(1,))
        (1): BatchNorm1d(128, eps=1e-05, momentum=0.1, affine=True, track_running_stats=True)
      )
      (1): Sequential(
        (0): Conv1d(128, 64, kernel_size=(1,), stride=(1,))
        (1): BatchNorm1d(64, eps=1e-05, momentum=0.1, affine=True, track_running_stats=True)
      )
    )
  )
  (att_learner): SelfAttention(
    (q_map): Conv1d(256, 64, kernel_size=(1,), stride=(1,), bias=False)
    (k_map): Conv1d(256, 64, kernel_size=(1,), stride=(1,), bias=False)
    (v_map): Conv1d(256, 64, kernel_size=(1,), stride=(1,), bias=False)
    (dropout): Dropout(p=0.1, inplace=False)
  )
  (transformer): QGPA(
    (layer_norm): LayerNorm((320,), eps=1e-05, elementwise_affine=True)
    (q_map): Conv1d(2048, 512, kernel_size=(1,), stride=(1,), bias=False)
    (k_map): Conv1d(2048, 512, kernel_size=(1,), stride=(1,), bias=False)
    (v_map): Linear(in_features=320, out_features=320, bias=True)
    (fc): Conv1d(320, 320, kernel_size=(1,), stride=(1,), bias=False)
    (dropout): Dropout(p=0.1, inplace=False)
  )
  (text_projector): ProjectorNetwork(
    (model): Sequential(
      (0): Linear(in_features=1024, out_features=320, bias=True)
      (1): LeakyReLU(negative_slope=0.2, inplace=True)
      (2): Dropout(p=0.1, inplace=False)
      (3): Linear(in_features=320, out_features=320, bias=True)
    )
  )
  (text_compressor): MultiheadAttention(
    (out_proj): _LinearWithBias(in_features=320, out_features=320, bias=True)
  )
  (text_compressor_diff): MultiheadAttention(
    (out_proj): _LinearWithBias(in_features=320, out_features=320, bias=True)
  )
  (proto_compressor): MultiHeadAttention(
    (q_map): Linear(in_features=320, out_features=320, bias=True)
    (k_map): Linear(in_features=320, out_features=320, bias=True)
    (v_map): Linear(in_features=320, out_features=320, bias=True)
    (dropout): Dropout(p=0.5, inplace=False)
  )
  (sim_head): ModuleDict(
    (ssm): ShallowSimilarityHead(
      (mha): MultiheadAttention(
        (out_proj): _LinearWithBias(in_features=320, out_features=320, bias=True)
      )
      (proj_drop): Dropout(p=0.0, inplace=False)
    )
    (dsm): DeepSimilarityHead(
      (encoder): TransformerEncoder(
        (layers): ModuleList(
          (0): TransformerEncoderLayer(
            (self_attn): MultiheadAttention(
              (out_proj): _LinearWithBias(in_features=320, out_features=320, bias=True)
            )
            (linear1): Linear(in_features=320, out_features=1280, bias=True)
            (dropout): Dropout(p=0.0, inplace=False)
            (linear2): Linear(in_features=1280, out_features=320, bias=True)
            (norm1): LayerNorm((320,), eps=1e-05, elementwise_affine=True)
            (norm2): LayerNorm((320,), eps=1e-05, elementwise_affine=True)
            (dropout1): Dropout(p=0.0, inplace=False)
            (dropout2): Dropout(p=0.0, inplace=False)
          )
          (1): TransformerEncoderLayer(
            (self_attn): MultiheadAttention(
              (out_proj): _LinearWithBias(in_features=320, out_features=320, bias=True)
            )
            (linear1): Linear(in_features=320, out_features=1280, bias=True)
            (dropout): Dropout(p=0.0, inplace=False)
            (linear2): Linear(in_features=1280, out_features=320, bias=True)
            (norm1): LayerNorm((320,), eps=1e-05, elementwise_affine=True)
            (norm2): LayerNorm((320,), eps=1e-05, elementwise_affine=True)
            (dropout1): Dropout(p=0.0, inplace=False)
            (dropout2): Dropout(p=0.0, inplace=False)
          )
        )
      )
    )
    (fusion): LogitsFusion()
  )
  (fusion): PrototypeGuidedGating(
    (proto_align): Sequential(
      (0): Linear(in_features=320, out_features=64, bias=True)
      (1): BatchNorm1d(64, eps=1e-05, momentum=0.1, affine=True, track_running_stats=True)
      (2): LeakyReLU(negative_slope=0.2)
    )
    (gate_gen): Sequential(
      (0): Conv1d(64, 64, kernel_size=(1,), stride=(1,), bias=False)
      (1): BatchNorm1d(64, eps=1e-05, momentum=0.1, affine=True, track_running_stats=True)
      (2): Sigmoid()
    )
    (fusion): Sequential(
      (0): Conv1d(384, 320, kernel_size=(1,), stride=(1,), bias=False)
      (1): BatchNorm1d(320, eps=1e-05, momentum=0.1, affine=True, track_running_stats=True)
      (2): LeakyReLU(negative_slope=0.2)
    )
  )
  (mam): MutualAggregationModule()
  (cps): CommonalityBasedPrototypeSelection()
)

=== OPTIMIZER DIAGNOSTICS ===
Total trainable parameters in model: 7,057,028
Total parameters in optimizer: 7,057,028
Difference (model - optimizer): 0

Parameter counts per module:
  encoder: 77,568
…
